thesis/newest_model.npz (npz, 10454 bytes, 4 tensors)

arr_1 f8 [1]
0.27728122495949586
00000000: 11bc 3fc0 f9be d13f

arr_0 f8 [1, 1, 64, 9]
-0.00021540997623059073 0.0052518952351881185 -0.0039778003059117994 -0.004462552606821491 0.005758992557494876 -0.003085765485047168 0.003316673655098583 0.0025643791907653192
-0.0013652936973982182 -0.0027838062770112145 -0.0032511081138382214 0.004925041059869335 0.005636690988652669 -0.0007027781871277982 0.004564898372219901 -0.0078015982710426925
-0.001037450048208462 0.003423750834470908 0.011710771732733903 -0.0021076270353461986 -0.00426976594839499 -0.005859202769115148 0.0013494571077834942 -0.0025131552941440156
-0.005481944437805803 0.0036013843133899963 -0.0022578011277977765 -0.005572786325574982 0.0027522816305861615 0.004674016363912389 0.008200214072198191 0.0014272735426146587
0.0007755661643431997 -0.000992437659665284 0.0035545820771335727 0.0024391573519628165 0.002315469288687185 0.0003582630722779799 0.0010570032819795208 -0.006483623013356473
0.005522235930322589 -0.0021699328311607213 0.006289536841446011 -0.007068331634017395 -6.562369331030716e-05 0.00204050263950485 0.0029267403180409514 -0.000367796946201624
0.004903650326001727 -0.0009936855210355966 -0.0010202490285401297 -0.0017956996780996376 0.0029172490188345297 0.0021296780261454186 -0.00041090831997762494 -0.002162862586151962
-0.006816048548020599 -0.0033183402803556375 0.0007236246540291752 0.001584850261286726 0.0043006356620141776 -0.003825393083127087 -0.006160382787435663 0.006940187995841862
0.004120690540493678 0.007588024902493026 0.008264117603194204 -0.0018916615621494934 0.0066891482866881635 -0.012543450017525966 0.009565917728673745 0.01042037510673335
-0.01499093481553606 -0.000164503186303061 -0.005673845358946563 0.0019335967043597646 -0.00248154297098632 -0.004023739913159302 -0.0039246331994347745 0.0015490543590982566
-0.008944174600880192 0.00551549220839037 0.0021835376509610096 0.0005456005036244605 -0.004378884373648579 -0.004221338825306983 -0.0038178330969118146 -0.001334491992818487
0.002972387023175916 0.000905635164674844 -0.01067999006346239 -0.006954668541494314 -0.01415491442316342 0.0016174514646943399 0.008277721679466946 0.002463424158297863
-0.0017091741049923448 -0.015936218193802375 -0.0019592976368991355 0.01231742283400388 0.014499682255367742 0.008498260531535125 -0.00211184539631372 -0.0012338798141334488
-0.004897270599749931 0.003845128489235352 0.015466299067919907 0.0016454994012863383 -0.006183109345463085 -0.006633540470726571 0.010902465182142836 0.007070161542631387
-0.004256042318171791 0.010563180137550608 0.0005287430799610587 -0.011909670311123983 0.0014258443924960228 0.0065286836016014965 0.0068587871315585235 -0.0018200702766350079
-0.009022951688474888 0.004011360866236938 -0.007856454694346607 0.00699192562646385 0.008332357252788832 0.0010451371350165412 -0.006074600064089369 -0.0003288028390123722
0.002370445202069091 0.006015515887781846 0.0021709405221307793 -0.0025302121766341786 0.0024985480943761074 -0.0068437926988027175 -0.0022808377664578212 0.0024511032937006216
0.0020075046613559555 -0.009724322451077096 0.0070818672768742374 -0.007630409144912512 0.0062898410926009425 0.005013478304043848 -0.003466702730449236 0.0013044666041715234
-0.0010559327131826682 0.001333767474325998 -0.001273028455302818 -0.003478631248157813 0.003476893023697425 -0.000501749978525908 0.004162190250018012 -0.008237110951011792
0.0059599766458717255 0.004893533647419364 -0.0012657357702459664 0.00663384318672675 -0.0014002457098391255 0.002479559594108373 -0.0023845832488936626 0.0030279910071564493
0.00366361533524827 0.0014706009627035764 -0.004002422377863775 -0.002032616857360767 1.9045633751652223e-05 0.00023082122904088942 -0.00817125691504498 0.010805284874374413
-0.004838987829772501 -0.0007641625299145083 -0.0024193764581126485 0.0007087628308480285 -0.005144832049660752 0.0014668625541556766 0.004608328919938915 0.0018862352438110655
-0.003602248089068765 0.004211709349728951 0.0029977423324971525 -0.0057777826480185 -0.004841880029237868 0.0024721391292304475 -0.010056092324968234 -0.0021179473893568113
-0.008124294742698693 0.0007519894337276678 -0.0033419046936415684 -0.00046946118760266394 0.0009966351566749868 0.003103930204530319 -0.0001971340924794123 0.011814189345093394
-0.0024398318552249095 0.011427598275536369 -0.0021111978818010514 0.0007948638986914417 -0.0018928493139545046 -0.0007925716575881655 0.002490431997066496 -0.004090110861718357
-0.0008694091756576873 -0.00616377571764178 -0.015502032798444506 -0.0021378560208324916 -0.0012911834830520573 0.005313686564044606 -0.0016924152033632306 0.0012280420773645038
0.0011540378374247794 0.0026087908402527772 0.0057032413204379535 0.010129714996049621 0.009588996677514117 -0.001018987374495992 0.0013777385217518567 0.0012881633282994089
0.0033784001859581965 -0.0012697514881632765 -0.004589304461157738 0.0014039636686682382 -0.008084961797134064 0.0008039797444059298 0.0048401160295410365 -0.00508237178857773
-0.0005629534114089082 0.008683523817818032 0.004027530298578919 0.003164015720736262 -0.0021472889527509326 -3.1154154773326954e-05 0.0031137629955223234 -0.0059925024589921735
0.008767355169396739 7.198480328342683e-05 0.0020811126891284422 -0.0021814485878264038 -0.003877273122948266 -0.001581047670627949 0.003944617551741614 -0.004988462978792839
0.007636258777384522 0.001967076414728187 -0.0031024965278026143 -0.007328616880211706 0.008599366071933817 0.0021190571358894656 -0.0016439312157372635 0.0027718015917499567
-0.0043654459011643965 0.002290574394394462 -0.006309529056596332 0.008793819040743684 -0.0008030685512136803 -0.0022049953445342856 0.0002173975555497219 0.002271811990784181
00000000: 3a7f 359b f53b 2cbf 1836 6fe4 0283 753f
00000010: a022 95a3 064b 70bf 8132 0c58 5347 72bf
00000020: 62db 13cb bd96 773f 54c6 ecba 5147 69bf
00000030: 0a37 2a9c 912b 6b3f b1be 4898 e401 653f
00000040: 9c97 e7f1 745e 56bf b596 619d 10ce 66bf
00000050: 054e ca60 11a2 6abf ee9b 89a4 472c 743f
00000060: cb42 43b7 7f16 773f eb46 3faa 5407 47bf
00000070: bbf1 7d93 a4b2 723f 2dfa e396 91f4 7fbf
00000080: 887c cf81 61ff 50bf 3679 a33b 200c 6c3f
00000090: acf8 d22c d1fb 873f 3f1a 0ca6 0344 61bf
000000a0: e946 c291 2c7d 71bf 293b 62c4 d1ff 77bf
000000b0: d958 4c89 081c 563f 5b2e 8af9 7796 64bf
000000c0: fa07 4341 3c74 76bf 4632 157b a680 6d3f
000000d0: 8105 27c0 f37e 62bf e24a 4170 7dd3 76bf
000000e0: ffcc f7f2 f38b 663f 7097 c8b6 0f25 733f
000000f0: 0913 151a 46cb 803f 94cc 074c 6b62 573f
00000100: 9809 e7a7 eb69 493f 1544 a9d2 9542 50bf
00000110: 3429 b6b8 7f1e 6d3f 7eab cea1 48fb 633f
00000120: de6e d51b e4f7 623f 82bb c52d a87a 373f
00000130: 7291 c8a1 6451 513f fcd2 d44c 928e 7abf
00000140: c764 8beb 7b9e 763f dc54 6bd1 adc6 61bf
00000150: 43ed a7b0 0ec3 793f d443 49d3 aef3 7cbf
00000160: 67be 6877 ee33 11bf 1d95 5483 3eb7 603f
00000170: df56 65be d1f9 673f 3e5a 02db 9b1a 38bf
00000180: 97c8 7f9c d915 743f 7bcd 2eb4 d147 50bf
00000190: c1d9 860d 3cb7 50bf 641b 04d9 b56b 5dbf
000001a0: 4474 2a24 eae5 673f 484f 252f 4272 613f
000001b0: b1ea c3cb e5ed 3abf 202f 5802 dab7 61bf
000001c0: c88c a019 25eb 7bbf 5064 655f 102f 6bbf
000001d0: 2e0f a01c 34b6 473f bb63 a402 58f7 593f
000001e0: 5167 5318 8b9d 713f a5c9 f645 6e56 6fbf
000001f0: df62 a529 a13b 79bf 9912 8687 506d 7c3f
00000200: 75d4 bb71 dbe0 703f a351 c2ec 9e14 7f3f
00000210: b029 b016 c7ec 803f 329e d922 34fe 5ebf
00000220: ce1a 1292 1466 7b3f 3193 d55c 61b0 89bf
00000230: f333 68be 4b97 833f 8e20 5d12 4757 853f
00000240: cc4f 2736 91b3 8ebf 32f7 4a9c cf8f 25bf
00000250: 8fd5 2544 753d 77bf d2dd f7a6 17ae 5f3f
00000260: bb9b ed3c 2c54 64bf 06a4 5a75 327b 70bf
00000270: 548c d8b3 4613 70bf 34ae f873 3461 593f
00000280: 5836 34cb 5251 82bf bf87 80aa 6997 763f
00000290: e762 9dd9 35e3 613f 3482 ed28 d4e0 413f
000002a0: 3a36 d8d2 97ef 71bf 2351 3303 654a 71bf
000002b0: 97cd 5e89 9346 6fbf ffc8 d1dd 43dd 55bf
000002c0: e86f c721 8c59 683f f699 0ab5 04ad 4d3f
000002d0: e978 5a00 64df 85bf 1a37 0b9f 7f7c 7cbf
000002e0: 058a 3374 40fd 8cbf 2bdd 3249 1580 5a3f
000002f0: 028a 30ff e8f3 803f 782b 46c6 2c2e 643f
00000300: 4d4b 95b8 cb00 5cbf d371 db7f 9551 90bf
00000310: ae6d c1e8 f10c 60bf 5bc4 f181 e039 893f
00000320: 61ac b668 02b2 8d3f 7e57 7238 8967 813f
00000330: 22fd 295d dc4c 61bf 82bd ba5c 4437 54bf
00000340: 46a6 0c11 290f 74bf 05a0 86a3 d17f 6f3f
00000350: 5fb6 7e85 cbac 8f3f 1c9e 4d87 b9f5 5a3f
00000360: 955a d2c6 7553 79bf 4a2f 0e76 c52b 7bbf
00000370: 2483 391b 0854 863f ed0b a609 9af5 7c3f
00000380: 8a2f 12a9 c86e 71bf 2c3c dc09 26a2 853f
00000390: d2fa 421e 6b53 413f b779 f0e3 1864 88bf
000003a0: 99b5 3cc2 6c5c 573f 5e80 e028 d2bd 7a3f
000003b0: 856c b9a6 f517 7c3f 26e6 2194 edd1 5dbf
000003c0: bfb6 5213 a07a 82bf 4421 ba7b 376e 703f
000003d0: 483c cc7f 0b17 80bf d178 6dbe 90a3 7c3f
000003e0: d1cc 310f 8e10 813f 408e 2474 9f1f 513f
000003f0: ace1 c809 aee1 78bf b167 bd70 658c 35bf
00000400: 14c9 d513 2f6b 633f 9fff 1ac0 b9a3 783f
00000410: 605f 69d1 cac8 613f f563 9e51 3dba 64bf
00000420: 005f 4acb d577 643f d7c0 269d 3c08 7cbf
00000430: ff4f a973 43af 62bf 6eb9 890f 5614 643f
00000440: 6e36 bfdb 0a72 603f ae9e 3977 58ea 83bf
00000450: 20a2 9445 e001 7d3f 6a50 b85b 1041 7fbf
00000460: 3dd9 a25c 60c3 793f f161 ae55 0389 743f
00000470: ec7e 45db 3366 6cbf 8440 d559 545f 553f
00000480: 20c7 121e e74c 51bf cf55 b1eb 39da 553f
00000490: 3d17 46e5 77db 54bf c805 43ee 377f 6cbf
000004a0: 9ad5 82ba 927b 6c3f 7813 d0df fb70 40bf
000004b0: 3b92 0e70 5f0c 713f 1259 2f51 9ede 80bf
000004c0: c38c 760c 7d69 783f d502 a4ef 3d0b 743f
000004d0: f8f4 446f e1bc 54bf e560 8ab8 162c 7b3f
000004e0: 7c8a ed61 0ef1 56bf d08a af6b 0350 643f
000004f0: dade 3162 d588 63bf ff6d 254b 28ce 683f
00000500: e3b9 9981 2803 6e3f 14ea 93c2 2518 583f
00000510: a2b6 7b13 d864 70bf e169 afdd b4a6 60bf
00000520: d4f9 4afc 85f8 f33e fc37 8942 1341 2e3f
00000530: 9518 bd89 17bc 80bf 5574 46c9 1421 863f
00000540: cd05 98e7 0bd2 73bf cd6b 9389 420a 49bf
00000550: 2632 75d8 ccd1 63bf ea29 ed96 8839 473f
00000560: f3e7 5856 bf12 75bf f52c a9ac 7708 583f
00000570: 946d 01e0 2ee0 723f 72a2 d2ab 71e7 5e3f
00000580: 5814 8237 7682 6dbf 2370 ad1e 4c40 713f
00000590: e005 f5a8 b88e 683f d623 44b8 71aa 77bf
000005a0: 4f18 0746 14d5 73bf 8834 c296 7340 643f
000005b0: 1f55 4add 4998 84bf 4db3 b358 a859 61bf
000005c0: f59c c861 78a3 80bf cd93 2c03 25a4 483f
000005d0: c27f b26b 7b60 6bbf 4904 8f72 40c4 3ebf
000005e0: 3a87 dad9 3054 503f 8bf5 f5d6 696d 693f
000005f0: ab09 d3f5 b8d6 29bf 8c6b eda6 0932 883f
00000600: 236b d4c0 b2fc 63bf a80a ec46 5a67 873f
00000610: 3171 72bb 804b 61bf 4b28 8e39 cd0b 4a3f
00000620: 0688 9479 2f03 5fbf d493 aeac 92f8 49bf
00000630: 77b8 5e7f d066 643f d0a2 35c6 cac0 70bf
00000640: 9b23 f7fc 217d 4cbf d5ce 08f2 2f3f 79bf
00000650: f16f 209f 87bf 8fbf f651 2db6 6883 61bf
00000660: bd50 4db5 9d27 55bf e662 38e0 cdc3 753f
00000670: 3bdb c7fc 80ba 5bbf 4778 dd23 c81e 543f
00000680: c216 49b1 62e8 523f f163 e9ea 075f 653f
00000690: 6258 3d2f 485c 773f 33b5 0155 e3be 843f
000006a0: c00e 0d59 65a3 833f 8f2d b45c f1b1 50bf
000006b0: 8fde 2c79 a792 563f 3926 7cd7 f21a 553f
000006c0: 7fbb f7c9 04ad 6b3f 0fc5 6747 b9cd 54bf
000006d0: be27 2709 3ccc 72bf f83f ab82 a600 573f
000006e0: d596 1034 d98e 80bf c73f bc5a 4558 4a3f
000006f0: fa3e e4c0 3ad3 733f fc8c e3c9 40d1 74bf
00000700: dec0 de3e 6572 42bf 0f16 7ed6 aac8 813f
00000710: 671f a8ee 2b7f 703f 714c 6d01 6ceb 693f
00000720: c4d3 77fa 3097 61bf 5919 6a9b 7055 00bf
00000730: c0e4 76c7 0882 693f ef35 5221 988b 78bf
00000740: f9bf cc7d 9ef4 813f 17e5 ee80 d1de 123f
00000750: ba15 0dde 680c 613f c6bd f64a d4de 61bf
00000760: e6d6 5728 3bc3 6fbf 161c 7b02 65e7 59bf
00000770: a74e 1436 3b28 703f f29a 9e55 c86e 74bf
00000780: 9d0d 679b 3247 7f3f 4ff6 d61b 421d 603f
00000790: 3984 ee23 686a 69bf 91ee 349d 9c04 7ebf
000007a0: d0bf 5c60 8b9c 813f 2da1 1a23 fc5b 613f
000007b0: 44e4 bdb3 25ef 5abf 1b8c 00a6 e3b4 663f
000007c0: 091e 0c76 80e1 71bf 9986 9dc3 aec3 623f
000007d0: 8f4a 384f 05d8 79bf 6ad8 7e69 7e02 823f
000007e0: 28f7 fa94 a050 4abf 933c 90dc 3510 62bf
000007f0: 7f9f 5ac8 a67e 2c3f ed9e 7fc6 559c 623f

arr_3 f8 [64]
-0.013896153696940297 0.1413863137105338 0.44989951048887744 0.3463053681953442 0.429476590532241 0.4909634410086195 0.49081257235581094 0.6575093126781101
0.5869530033800415 0.5781685918361575 0.47884387554937247 0.3437956144244222 0.25363925391743747 0.15984013273371053 0.12093369521848894 0.10126116144152891
0.11312571906521622 0.1141531439742308 0.15570552431832546 0.16411678193994475 0.17280978106563333 0.16075047144949678 0.1474611026192953 0.1442442475201078
0.14257756812811972 0.14233415635913646 0.11977580110194648 0.12975088043877353 0.1030471119924605 0.06486052967749283 0.03767321584676411 0.028176028776610445
0.029976335066790184 0.03506706308306239 0.03950317692005959 0.032522350642912826 0.02916908147247958 0.02419503902651519 0.022684466465202033 0.024061721399123492
0.022672519203947836 0.017588288637546166 0.020376497832784578 0.021805475415678146 0.018129369607109185 0.017659401058999227 0.01742559064821558 0.016228224980345925
0.015701092867803787 0.015997725231898744 0.015766227130506086 0.014834883779463999 0.013720420632616016 0.011041563530296934 0.0089538161830825 0.010093985780151369
0.009376930984919611 0.00869093585651154 0.0076897620289776945 0.006127277035830886 0.006351719520340139 0.008017250837069669 0.011397156039880531 0.011146896019409783
00000000: bb2f 592d 9675 8cbf 018f be5c f218 c23f
00000010: 1450 0251 27cb dc3f ea01 b5fd dd29 d63f
00000020: 9ff2 ae61 8b7c db3f 2d79 aaec f16b df3f
00000030: 43f7 ae22 7969 df3f cf92 58f8 500a e53f
00000040: d9cc 39aa 51c8 e23f 6757 306b 5b80 e23f
00000050: f8f6 57c8 60a5 de3f fa82 1d52 bf00 d63f
00000060: b8a9 2323 a03b d03f abfc 5637 a475 c43f
00000070: bfa5 f2b9 82f5 be3f 5410 bf60 40ec b93f
00000080: f3b9 b89f cef5 bc3f c7da 1af4 2339 bd3f
00000090: 927a 609b 28ee c33f e112 9459 c701 c53f
000000a0: 5a8b 0d83 a11e c63f 0a99 d8b0 7893 c43f
000000b0: e64a 9762 01e0 c23f 3914 de72 9876 c23f
000000c0: 3c72 2054 fb3f c23f 6747 5571 0138 c23f
000000d0: 8dc6 957c a0a9 be3f 724d 0e46 ad9b c03f
000000e0: 2e72 f4a7 4b61 ba3f 1b1d c41d b39a b03f
000000f0: e476 fe5b e749 a33f cbbc 8148 2dda 9c3f
00000100: 5a2e 10cb 1db2 9e3f 2f90 3762 4ff4 a13f
00000110: 6565 eba9 c239 a43f 5afb cc00 c5a6 a03f
00000120: ab25 eaeb 7fde 9d3f 1b97 6095 95c6 983f
00000130: 9989 61c6 983a 973f 5092 fac9 a2a3 983f
00000140: 79dc fe01 7737 973f 69a6 f611 aa02 923f
00000150: 16ff 319f 93dd 943f 27e3 22af 2c54 963f
00000160: bb0f 3d66 8190 923f c4b7 0f58 4e15 923f
00000170: 9f4f ca97 03d8 913f 9f38 40be 219e 903f
00000180: acc3 8381 f213 903f b1c0 b92a b561 903f
00000190: 7498 a097 0525 903f 57cf 6165 c061 8e3f
000001a0: fa4f 3caf 7319 8c3f 771c 1392 f59c 863f
000001b0: 2225 72dd 6056 823f 650e 7fd6 27ac 843f
000001c0: 692d 565f 3634 833f 21eb 33aa 8dcc 813f
000001d0: bc0f dbc6 4c7f 7f3f c703 b867 ea18 793f
000001e0: c1c5 cfb9 4204 7a3f 613d 3131 596b 803f
000001f0: ae68 ab63 6457 873f c89b d70e 2fd4 863f

arr_2 f8 [64, 1, 1, 9]
0.013060093224989591 0.03605921174239469 0.06481329924800888 0.08974438725067214 0.16275696330993916 0.2328007957808843 0.1551284752313228 0.08267023801833769
0.05388498793219084 0.185489222368977 0.2797519727243063 0.3651320421576597 0.4608658615305675 0.7348827115598773 1.828323632056788 0.7676086589294548
0.27055213938208617 0.18996834388881595 0.23365882091350085 0.2703418116563662 0.3130380686525667 0.3472363905694917 0.33591926116195997 1.6137228715705407
0.34976478884145185 0.17211125850110007 0.16100194427563688 0.06613260571734648 0.07956710263611907 0.11274840524880322 0.13484902497078 0.140621121861367
0.27853951903595053 0.10727767294103821 0.0903551368014119 0.07413968627557983 -0.014479084984878042 -0.017921850842259217 -0.014110088319445515 -0.014306734663356595
-0.007872431879962278 -0.0065392922811071215 -0.00029514218035769663 0.008903038735621017 0.013637625371317363 -0.04069277037836807 -0.04948846686296083 -0.048280804574457874
-0.05312880452844659 -0.0472879139745496 -0.0484853414063296 -0.039250242330284936 -0.02242962134003919 -0.009403576851027114 -0.047756586953369214 -0.058072081590657916
-0.0631431926947278 -0.07029294599798021 -0.06765686945710883 -0.07249258392815522 -0.06088073064342748 -0.047665805840601275 -0.02665420176170043 -0.0870822182737869
-0.09586982212379222 -0.11404040122359445 -0.13009022013722638 -0.1335190074332442 -0.13903918874285637 -0.11507644822699654 -0.09635124069458803 -0.0526437010606946
-0.07313844295541089 -0.08753497004798844 -0.10802196238749112 -0.11626623978507651 -0.12130119841040808 -0.12574946076113755 -0.10637571348492511 -0.08633854178619332
-0.062177291220996536 -0.10706128507128199 -0.1358558745027759 -0.1460947538177525 -0.15658202234319143 -0.16410077877047913 -0.16567831070675804 -0.14750422015810072
-0.1263136969507912 -0.10393502839508771 -0.08417836211691312 -0.09340213797495821 -0.10518159140154533 -0.11193209880429367 -0.12480623916553837 -0.12141174766734945
-0.10849534888737059 -0.09273719794695523 -0.07476111795300601 -0.049701622486490384 -0.0568828889913257 -0.06271427003187864 -0.0703044153872573 -0.07980063316990511
-0.0802312451688325 -0.06773091121573653 -0.06084680776628132 -0.04741886075708283 -0.029950276080678292 -0.03135592026680554 -0.040040847691613465 -0.04267520419265514
-0.0496902608075223 -0.050151915754036464 -0.04546665750848325 -0.03999610405711735 -0.030024701514879563 -0.020201988699868098 -0.01849747240557401 -0.026344405557164767
-0.02617085139688119 -0.031081433976356522 -0.028567350113456888 -0.027241410691896555 -0.024024967983775812 -0.016521986296364546 -0.011496548014107594 -0.015057995241001121
-0.014966545421659707 -0.018406281620216312 -0.021782928261901747 -0.018377039064141565 -0.017486777957527625 -0.01638374434685387 -0.012123559703300093 -0.00911907604563639
-0.014468322591513228 -0.012306684948630924 -0.014965271272660449 -0.013615641869120648 -0.0157666478001375 -0.0133713044418008 -0.011709503672555724 -0.00898329830730428
-0.010863701882455843 -0.013107136023504726 -0.013250384844336155 -0.012858941813191515 -0.014536446406461793 -0.014813108280995203 -0.012082342954251217 -0.011633617210761855
-0.009195006960165246 -0.010012889942613887 -0.009166152463247194 -0.012631659410758863 -0.011427498866942472 -0.012100019647649037 -0.012955524708774098 -0.010380943712681076
-0.00900421536722706 -0.006783098721683613 -0.010282846810537283 -0.008993049785787811 -0.011203374211522742 -0.01213710686271592 -0.011297956152229812 -0.011989127380087733
-0.012402396218482716 -0.009185492053811636 -0.006972308654649826 -0.009345808889960179 -0.010832472903429709 -0.010507525394917111 -0.013000135085227035 -0.01383283093417226
-0.016090109195390622 -0.01457493968554518 -0.01108269853947014 -0.006226123954426094 -0.00950101655638301 -0.009709156299561336 -0.010578358373792245 -0.013180179724189974
-0.014105693864738589 -0.017288019675989582 -0.012855689383481264 -0.011766197783433033 -0.007939504929884423 -0.015747119612659313 -0.019577190929631994 -0.019813323264327762
-0.02413867541480976 -0.0251043783425775 -0.026184607147125345 -0.018194913450920128 -0.014937729774328022 -0.01270132595156272 -0.011110052983994312 -0.011259737456739673
-0.015299199933295501 -0.018488922214579175 -0.019642572601728695 -0.018664024449977647 -0.01572807656495797 -0.012311508890250058 -0.008737833974733628 -0.0097143061947973
-0.009105626222333931 -0.010872981043914147 -0.015650258507601898 -0.01482704736882212 -0.017020007437815798 -0.013159907381810831 -0.010225156380535758 -0.006697879952637442
-0.01286995419524389 -0.013569387811568157 -0.016970163079209965 -0.02025517198169523 -0.021381446045148213 -0.022453940007907038 -0.017827857939615038 -0.013617426587351223
-0.010702355149200244 -0.0067328448344972786 -0.008851520850700869 -0.011407935491931327 -0.014109398089095773 -0.015201799797317667 -0.016869448669869815 -0.011200024253600685
-0.01163273954875433 -0.009753963851248009 -0.001421752844388661 -0.0008046397241787969 -0.0038705696549650986 -0.00424240094997565 -0.005068111375184336 -0.006871616252014895
-0.003713698131046174 -0.003495553452873402 -0.001114157024828088 0.003562519668595204 0.0020547184309362937 0.0023278668082661155 -3.7676031917721406e-05 0.0008072133874702609
-0.0021563578695587495 -0.0014975127078806923 0.00010552342225087292 0.003465092835631801 0.001628381861616563 0.0018311123324632568 0.0014292872331143171 -0.00042119675767519703
00000000: 88b7 450a 40bf 8a3f 5166 4e5e 5a76 a23f
00000010: 14b6 9db8 9a97 b03f 09bf 3df8 7cf9 b63f
00000020: 1c65 4e5d 38d5 c43f 4c4b 2e9e 6acc cd3f
00000030: 1500 e6f7 3fdb c33f fd2b a470 e029 b53f
00000040: cb06 d429 d096 ab3f bfe8 ea5f 1cbe c73f
00000050: 8ce9 75d1 74e7 d13f 627c f2c8 525e d73f
00000060: 3a77 c786 d37e dd3f 8674 91bf 2884 e73f
00000070: 6601 e347 d040 fd3f 464f c708 4090 e83f
00000080: b791 a0eb b950 d13f 2e8d 23f8 e150 c83f
00000090: 7f69 1f41 88e8 cd3f 0f8d f3bd 474d d13f
000000a0: 7d02 d1d2 d008 d43f fb87 5efb 1e39 d63f
000000b0: dd5f 3280 b37f d53f 2e3e e312 cfd1 f93f
000000c0: cb72 57da 8b62 d63f 6b8f 44e1 bd07 c63f
000000d0: 9dcd a032 b69b c43f 1959 c102 11ee b03f
000000e0: fedb a877 825e b43f 7e42 3859 14dd bc3f
000000f0: 7cd0 129c bb42 c13f 4cbd c277 dfff c13f
00000100: 60ca 396b 97d3 d13f 1a6c dfb0 8c76 bb3f
00000110: 8d71 96a5 8321 b73f 2daa e387 d1fa b23f
00000120: 3f71 e3e3 35a7 8dbf 0e53 010d 1b5a 92bf
00000130: ce69 01ff bfe5 8cbf a9ee ee6b d94c 8dbf
00000140: dd24 b7eb 6b1f 80bf cb0c c8e7 f1c8 7abf
00000150: d083 2603 aa57 33bf f4d7 a2a1 c13b 823f
00000160: a621 b817 0bee 8b3f 73de eacb aed5 a4bf
00000170: f143 6965 8d56 a9bf 87fe 57f9 42b8 a8bf
00000180: ffba d9db b233 abbf b593 0818 1f36 a8bf
00000190: a9e5 5917 12d3 a8bf 1d59 5696 9b18 a4bf
000001a0: 75f1 7768 caf7 96bf c41d 53b8 2e42 83bf
000001b0: 0940 4426 8d73 a8bf 812b 7cb6 9fbb adbf
000001c0: f9c0 96fb 262a b0bf e168 33f0 b7fe b1bf
000001d0: 9a03 abe9 f551 b1bf c488 2cbd df8e b2bf
000001e0: f1e4 2356 c22b afbf ca1b 720a a767 a8bf
000001f0: 054f 7833 3d4b 9bbf 6e8e 8c2f 054b b6bf
00000200: 26ed b1b6 ec8a b8bf 1d95 ad71 c031 bdbf
00000210: f468 82dc cba6 c0bf 29fb 289d 2617 c1bf
00000220: 00a8 4140 09cc c1bf ddbe ac6d a675 bdbf
00000230: fa57 b693 79aa b8bf 80cb ca7c 1df4 aabf
00000240: ece7 9274 33b9 b2bf 84c9 9c19 b168 b6bf
00000250: 6c3a b4cb 53a7 bbbf f57b 81d1 9fc3 bdbf
00000260: 4768 2368 980d bfbf 5fb7 baee 8e18 c0bf
00000270: b6a4 8152 703b bbbf c424 5b5d 481a b6bf
00000280: 5a33 b2b0 b3d5 afbf 0084 0c4e 5e68 bbbf
00000290: 53bd faac b963 c1bf 74d8 e19e 3bb3 c2bf
000002a0: 9d82 8d34 e10a c4bf 909e 081b 4101 c5bf
000002b0: c62e 1267 f234 c5bf 70ee cc14 6be1 c2bf
000002c0: 6862 b816 0c2b c0bf afa0 dd6b 7c9b babf
000002d0: 4aaf 5290 b68c b5bf d79a fad7 33e9 b7bf
000002e0: b5fb 3547 2eed babf 68b1 bcff 94a7 bcbf
000002f0: 7a80 8d3b 4df3 bfbf 3bdb 941d d714 bfbf
00000300: 2247 3de7 59c6 bbbf b80a 4e00 a0bd b7bf
00000310: f9dc 9e6c 8b23 b3bf 6575 46b6 7d72 a9bf
00000320: 77e8 d607 c11f adbf d588 c7da 0a0e b0bf
00000330: 8948 da5c 78ff b1bf a532 aa75 d06d b4bf
00000340: 0f14 1eee 088a b4bf f390 9920 d056 b1bf
00000350: 9827 d812 5027 afbf 759b 54f0 4847 a8bf
00000360: 8f3a 1701 49ab 9ebf 8df0 2918 e20d a0bf
00000370: a6df ade6 3b80 a4bf 3114 b73c 86d9 a5bf
00000380: 862f 327a 0071 a9bf 649c fd0b 83ad a9bf
00000390: 645f 1dde 6747 a7bf 2914 c98d 5e7a a4bf
000003a0: 7e74 509c cbbe 9ebf 3cd1 1e83 d4af 94bf
000003b0: c993 295c 00f1 92bf 1ecc 3321 07fa 9abf
000003c0: b0ac 6e1b 88cc 9abf fad2 c3b9 cfd3 9fbf
000003d0: bcf9 e169 c240 9dbf fe0b 1320 2ce5 9bbf
000003e0: 366e 1c4f 009a 98bf f43b 3bbb 23eb 90bf
000003f0: fd5e e68d 808b 87bf adcf d3e8 b9d6 8ebf
00000400: 2105 f6b8 c7a6 8ebf a630 66a6 18d9 92bf
00000410: bde2 fb91 434e 96bf 4078 1c37 6ed1 92bf
00000420: 018e c2cd 0de8 91bf 2480 9f78 e6c6 90bf
00000430: 2185 7ea3 3cd4 88bf a201 16ab 05ad 82bf
00000440: 8d43 de62 91a1 8dbf 292a 034b 3f34 89bf
00000450: fee5 88b5 1ca6 8ebf f0da 5584 84e2 8bbf
00000460: 4633 add2 2125 90bf c557 421a 6a62 8bbf
00000470: b5af 9bfa 26fb 87bf c84a 85e3 d565 82bf
00000480: 259e 6362 b53f 86bf 257b 8504 ead7 8abf
00000490: fdd5 868c 0423 8bbf 19fe 63f4 c955 8abf
000004a0: 4294 53cf 48c5 8dbf 67ac f3bc 5556 8ebf
000004b0: 29d0 c79e a0be 88bf 0a9f a2ab 5dd3 87bf
000004c0: a976 71f1 d4d4 82bf d85c bc56 a381 84bf
000004d0: 9c76 7a28 b4c5 82bf 51e2 81a0 a0de 89bf
000004e0: 71cd 44ef 4c67 87bf f143 5725 e5c7 88bf
000004f0: 24e4 6917 6d88 8abf 4b0c fbad 9a42 85bf
00000500: be1f 3a54 cd70 82bf 9b7f cd32 98c8 7bbf
00000510: cd99 1656 2c0f 85bf 2723 c5b5 f26a 82bf
00000520: 0629 bf6e cbf1 86bf a7ed 58e8 56db 88bf
00000530: 31d7 7b01 6223 87bf 435a 0a70 c18d 88bf
00000540: 010e 3471 6d66 89bf 5e14 c0df d7cf 82bf
00000550: 0ab1 63da fe8e 7cbf 44de 4b3c e523 83bf
00000560: 841d d7e6 552f 86bf 5de7 762f f884 85bf
00000570: 4bed 4698 d09f 8abf a174 c923 6354 8cbf
00000580: f311 22f3 ec79 90bf 5d20 534a 77d9 8dbf
00000590: a244 3a9e 86b2 86bf e0db 3d6c 9080 79bf
000005a0: b87b 1bdb 4475 83bf 2b19 3ae6 64e2 83bf
000005b0: 2921 163a 1baa 85bf 1165 f7c6 35fe 8abf
000005c0: 8007 b12e 72e3 8cbf 1fe2 7b5c f3b3 91bf
000005d0: 88b6 c16b 1554 8abf 48c6 6c55 e018 88bf
000005e0: da8a 2950 9642 80bf c764 f84e 0320 90bf
000005f0: ed48 290b 0b0c 94bf 6c0d c89d f149 94bf
00000600: a6c6 e615 cfb7 98bf ff01 df4f f6b4 99bf
00000610: 220b 6c3d 23d0 9abf 94a8 e6f8 afa1 92bf
00000620: 6c98 db26 ac97 8ebf 8a54 9f1c 2703 8abf
00000630: a0df c811 dec0 86bf 341f 1b61 580f 87bf
00000640: 2ba0 f2da 2f55 8fbf 37e7 ff90 c2ee 92bf
00000650: d123 bcbb 2e1d 94bf 4a62 7f7a a91c 93bf
00000660: d6e3 e659 051b 90bf 5b61 62c0 c636 89bf
00000670: d05d 4639 24e5 81bf 03a6 471b 18e5 83bf
00000680: 0e1b ad76 f8a5 82bf 1cf9 f2cf 9244 86bf
00000690: f63b db11 9f06 90bf ffd7 5c9c a45d 8ebf
000006a0: 93d9 4a5d b16d 91bf c00c 96de 94f3 8abf
000006b0: f2d0 0142 edf0 84bf 4df6 9575 3c6f 7bbf
000006c0: deeb f402 905b 8abf 0df8 0467 44ca 8bbf
000006d0: a362 bb5d a060 91bf fde7 f194 c5bd 94bf
000006e0: f738 058e 04e5 95bf 6750 0068 2afe 96bf
000006f0: 1bc8 3b4b 7741 92bf 076e c90e 74e3 8bbf
00000700: 7712 d9ca 1deb 85bf 50a9 f845 e693 7bbf
00000710: 4ec7 9604 bf20 82bf 4a60 d22e 0b5d 87bf
00000720: db0c df5a 63e5 8cbf 5d30 c207 1f22 8fbf
00000730: dac4 5a89 3946 91bf 48a8 11cf 09f0 86bf
00000740: 04f6 65df e7d2 87bf e9d4 fadd e2f9 83bf
00000750: dea6 0e7e 434b 57bf 07d9 73a6 ce5d 4abf
00000760: bc08 b842 2cb5 6fbf 93fa 62d5 7a60 71bf
00000770: 5910 bec9 4cc2 74bf 5347 2b71 6925 7cbf
00000780: 1d54 a480 306c 6ebf 9c4c 5ef8 b4a2 6cbf
00000790: fedf fdfe 1c41 52bf d9a2 f92e 252f 6d3f
000007a0: f7d7 d38e 0ed5 603f d946 f3f9 e311 633f
000007b0: 7ab9 7499 cac0 03bf 585c cf8c 6573 4a3f
000007c0: 713c e7d0 35aa 61bf 46a8 c306 0689 58bf
000007d0: 03f9 1197 8ea9 1b3f 1c37 038d d362 6c3f
000007e0: e9a4 d3b5 edad 5a3f 2cac 53e5 3d00 5e3f
000007f0: 2f6c 0f7b dd6a 573f db3a a54c 829a 3bbf
